examples/bas/quantum_rbm.pt (torch, 2723 bytes, 3 tensors)

b f4 [16]
00000000: b48b c83e 8c86 2b3f 3f42 a73f 6ef9 273f
00000010: 6d5a 1ebf e06c 7cbe 2635 a63e 3c48 32bd
00000020: eadc 53bc 2e13 d93e 8ea9 783f 0e78 bf3e
00000030: 00a5 bcbc 94d9 073e 00ee 8f3f 62c4 b03d
0.39169085 0.6700218 1.3067092 0.65614974 -0.6185673 -0.24650908 0.32462424 -0.04352592
-0.012931088 0.42397445 0.9713372 0.37396282 -0.023027897 0.13266593 1.1244507 0.08631207

c f4 [16]
00000000: 98df 3cbe d52b a340 f046 7e40 0e9b 1bc0
00000010: 3f34 463f bc74 8d40 2e8b a2bf 8cf0 9140
00000020: bbcd 8c40 9fcc c03d 87a0 79bf acfc 3640
00000030: 2d03 e4bf c014 c340 9b8f 5c40 ef83 6b40
-0.18444669 5.0991006 3.9730797 -2.4313388 0.7742347 4.4205 -1.2698724 4.5606136
4.4001136 0.094140284 -0.9751057 2.8591719 -1.7813469 6.096283 3.446265 3.6799276

W f4 [16, 16]
00000000: 82f2 42c0 8e2f 563e 8c29 46c0 e6d2 25c0
00000010: 1e1b 86be dea2 3740 1ab0 403e dbc1 2cbe
00000020: 2fbe 323e bdd2 4740 8a55 d93e 174b ce3d
00000030: 4a7e 8dbe 12cb 5140 28df 943e b7e8 d8bd
00000040: fd4a 26c0 2939 29c0 f5fb 8bc0 9899 18c0
00000050: 3f74 1f3f 324f 1a3f 515d 0dc0 a0a6 203f
00000060: c364 5b3f 8b24 333f 62c1 18c0 89a9 673f
00000070: eec0 f13e 6a38 3f3f e724 15c0 86d2 2b3f
00000080: 8550 613f 74c6 42be 0f8a 4dbf 7e7e 28bf
00000090: 19d1 e6be b6bf b7bf 480b debf 80fe f4bf
000000a0: b001 543f 29c6 bebd dc0b 1bbf bd3b 1bbf
000000b0: 5c92 a4be b648 94bf 0fd7 d5bf 3fd5 debf
000000c0: 7e2a fc3f 1fa5 89bf ba82 53bf b2bc 46bf
000000d0: d31e d43f 8771 adbf 71ae 93bf 85b6 75bf
000000e0: 893f 6c40 e275 0040 f257 2140 68da ee3f
000000f0: e79e f93f 6b2f 94bf abac 32bf ac34 96bf
00000100: a08c 1940 aa88 313f 76b5 a43f dca0 18bf
00000110: 7f29 3340 56e8 913f 714f ca3f 1779 eabd
00000120: e073 9bbc 3815 ecbf f020 babf 3490 29c0
00000130: e240 0b40 42f2 9f3e b7fa 473f f00b 9abf
00000140: 9455 2bc0 eaf9 903f c7f3 b13f 5348 8f3f
00000150: 77fc 30c0 d704 803f 94c7 773f 41b9 8c3f
00000160: 804e 3bc0 19f5 723f cc8d 603f 1b38 713f
00000170: 60cc 90c0 344d 19c0 734d 0cc0 1a96 17c0
00000180: 9cfb 6dbf 2747 ba3f 9842 a83f 711d 85bf
00000190: 03f3 fabf 8463 3c3f 113a 073d f1e0 fdbf
000001a0: 3885 bebf d9b5 6a3f 4d22 bc3e 858d cbbf
000001b0: 260d cd3f b9dc 6540 9ba7 5040 c19f 9b3f
000001c0: 4caa 903e 91df 2fbe b3e9 14bf 1c94 373f
000001d0: 91f8 61c0 b46e 69c0 f722 7ec0 076d 30c0
000001e0: 76ad 833c 3afd c1bd 98c2 28bf 5d98 163f
000001f0: 561f 313e 4234 c9bd 7ac6 23bf ea6c 2a3f
00000200: 9fe5 c03f 455d b63f cf84 0dc0 ff62 b13f
00000210: 8a39 533f 8aa0 443f 4a2d 1dc0 d26e 263f
00000220: addc 28c0 3ac9 2dc0 996a 93c0 ce4f 20c0
00000230: d2c8 3e3f 82c2 593f 64c7 2bc0 35ad 613f
00000240: 33db 063d bf42 6dbf 48df 66bf eb5a 52bf
00000250: a570 89be 39b0 a5bf 911c 82bf cc94 91bf
00000260: ff91 1bbf 0e51 abbf 80a8 b6bf af13 b9bf
00000270: 0d41 adbe 67fc b5bf d463 b6bf fa75 b2bf
00000280: 7652 4d3f 89b5 ffbd cacb f93f ab10 2940
00000290: f151 c63e af16 2ebf 0ee2 9e3f e8e3 ec3f
000002a0: f64f 6a3e 4396 41bf 7e59 923f 463c d93f
000002b0: d8ea a83e e009 f2be a129 c93f 2e89 0440
000002c0: d2d5 90be 30e0 76bf 367b 963f 7dfd b4be
000002d0: e4a3 f4bf 16f5 10c0 64e5 1ebf 7df7 e7bf
000002e0: 5240 07bf 6729 80bf 2c95 6b3f 515f ddbe
000002f0: ca25 843e 0d6d c8be 02c8 d53f 76e6 a73e
00000300: ca53 953f d615 753f e6cd f23d 38aa 1140
00000310: 52a7 613f 2875 753f e8a8 f3bd 3327 0c40
00000320: 3e49 963f 2631 5a3f 47f6 4ebd 712a 0840
00000330: 88a2 93bf 54f3 86bf 42ff 09c0 aef0 8b3d
00000340: 35d9 433f 59a8 053f 8fca 5c3f 3898 4dc0
00000350: de9e 973f 6258 683f 4611 933f 4aef 35c0
00000360: fab7 233f 60c3 a33e 3cf5 d53e 7146 4cc0
00000370: 635b 01c0 5a18 06c0 ff66 edbf a784 94c0
00000380: a860 fabf 35d6 84c0 4cac bbbf fe0f debf
00000390: 0bbb d73f 4f1a d0bf 96f8 0c40 2ed1 b63f
000003a0: 7b46 54bd eeea 3ec0 a151 0c3f 79ee 45bd
000003b0: 2b80 3d3f 2b25 18c0 4381 e03f 8b0b 6c3f
000003c0: 1052 46c0 d462 45c0 5753 14bf 16e0 3bbf
000003d0: a6ae 98bf 4a06 b9bf 5477 7e3f 2936 2c3f
000003e0: a85a 2ec0 622d 31c0 4876 12bf b316 23bf
000003f0: 245b f4bf a8bd e4bf 9824 383f eacf de3e
-3.0460515 0.20916578 -3.0962858 -2.5909972 -0.26192564 2.8693156 0.18817177 -0.16870825
0.17455362 3.1222374 0.42448074 0.10072916 -0.27635413 3.2780194 0.29076505 -0.10591262
-2.598327 -2.6441138 -4.3745065 -2.3843746 0.6228675 0.6027709 -2.2088206 0.6275425
0.85700625 0.69977635 -2.3868032 0.90493065 0.47217506 0.74695456 -2.3303773 0.6711811
0.8801349 -0.19021016 -0.80288786 -0.6581801 -0.45081404 -1.435538 -1.7347193 -1.9140167
0.82815075 -0.0931514 -0.6056497 -0.6063803 -0.32142913 -1.158469 -1.6706256 -1.7408828
1.9700468 -1.0753516 -0.8262135 -0.77631676 1.6571907 -1.3550271 -1.153761 -0.9598163
3.6913779 2.007195 2.5209928 1.8660402 1.9501618 -1.1576971 -0.6979472 -1.1734824
2.399208 0.6934916 1.2867877 -0.5962045 2.7994077 1.1399028 1.5805494 -0.11448877
-0.018976152 -1.8443975 -1.4541302 -2.6494265 2.1758351 0.31239516 0.78116935 -1.2034893
-2.6770983 1.1326268 1.390252 1.1193947 -2.7654092 1.0001477 0.9678891 1.0994035
-2.9266663 0.9490524 0.87716365 0.94226235 -4.524948 -2.395337 -2.1922271 -2.3685365
-0.9296205 1.4552964 1.3145323 -1.039961 -1.9605411 0.7358935 0.03301436 -1.9834272
-1.4884405 0.9168373 0.3674492 -1.5902563 1.6019638 3.5915968 3.2602298 1.2158128
0.28254926 -0.17175128 -0.58169097 0.7171037 -3.5307963 -3.6473818 -3.970884 -2.7566545
0.016073924 -0.09472127 -0.65921926 0.5882624 0.1729711 -0.098244205 -0.63974726 0.6657244
1.5070075 1.4247214 -2.211231 1.3858336 0.8250967 0.76807463 -2.4558892 0.6501285
-2.638469 -2.715407 -4.6067624 -2.504871 0.7452518 0.8506242 -2.6840448 0.8815492
0.03292389 -0.9267997 -0.9018445 -0.8216998 -0.26843753 -1.2944404 -1.0164968 -1.1373534
-0.6076965 -1.3384111 -1.4270172 -1.4459132 -0.33838692 -1.4217652 -1.4249215 -1.3942254
0.8020395 -0.12485797 1.9515316 2.6416423 0.3873439 -0.6800336 1.2412736 1.8507051
0.22882065 -0.75619906 1.1433561 1.6971519 0.32991672 -0.4727316 1.5715829 2.0708728
-0.28288132 -0.9643583 1.1756351 -0.35349646 -1.9112515 -2.2649589 -0.6206877 -1.8122402
-0.5283252 -1.0012635 0.92024493 -0.43236783 0.2581008 -0.391457 1.6701663 0.32793015
1.1666195 0.95736444 0.11855678 2.2760143 0.88145936 0.9588189 -0.11897451 2.1898925
1.1741102 0.85231245 -0.050527837 2.1275904 -1.1533976 -1.0543008 -2.1562047 0.068330154
0.76503307 0.52210003 0.8624658 -3.2124157 1.1845357 0.9075986 1.1489646 -2.84273
0.639526 0.31984997 0.4178866 -3.1917994 -2.0212028 -2.0952363 -1.8547057 -4.641193
-1.9560747 -4.1511483 -1.4661956 -1.734863 1.6853956 -1.6258029 2.2026725 1.4282587
-0.051825028 -2.983089 0.54812056 -0.04832313 0.74023694 -2.3772686 1.7539448 0.92205113
-3.0987587 -3.084157 -0.57939667 -0.73388803 -1.1928298 -1.4455044 0.9940083 0.6727014
-2.7242832 -2.768395 -0.5721173 -0.6370651 -1.9090314 -1.7870378 0.7193084 0.43518
